.config/google-chrome/Profile 1/optimization_guide_prediction_model_downloads/62c8b9e3-531a-48b8-8207-29535e5cba6d/model.tflite (tflite, 410364 bytes, 166 tensors)

context_transformer_0/bottleneck_input/norm/add f4 [32]
0	0x3ebd4614	0.36967528
1	0xba114167	-0.0005541057
2	0xbe23339a	-0.15937653
3	0xbdb7b318	-0.08969706
4	0xbcd2b70c	-0.02572205
5	0x3e0d9576	0.13826546
6	0x3c8833c6	0.01662625
7	0xbd03ac67	-0.032146838
8	0xbd9f7838	-0.07786602
9	0xbe1a40a0	-0.15063715
10	0x3db5e3b2	0.0888132
11	0x3d8c3354	0.068457276
12	0x3d4f20a4	0.050568238
13	0xbd0e3ffc	-0.03472899
14	0x3e052052	0.1300061
15	0xbd3cbf2a	-0.046080746
16	0x3d1c0ce2	0.038098224
17	0x3da5caf1	0.080953486
18	0x3d7d35a2	0.061818726
19	0x3cedec61	0.029043378
20	0x3dcd9258	0.100376785
21	0x3d80b674	0.062848
22	0x3bec7826	0.0072164712
23	0x3d68bee6	0.05682268
24	0xbe11b95b	-0.14230864
25	0xbd653a2c	-0.05596368
26	0xbe151ab7	-0.14560972
27	0x3e087046	0.13324079
28	0xbccbb116	-0.024864715
29	0x3e7bf280	0.24604225
30	0x3d0a6e9d	0.033796895
31	0x3d62bd3c	0.05535625

context_transformer_1/bottleneck_input/norm/add f4 [32]
0	0x3d8e487f	0.06947421
1	0xbd1b440b	-0.037906688
2	0xbe650821	-0.22366382
3	0x3e1126f9	0.14175023
4	0xbd6bbbfb	-0.05755232
5	0xbd899654	-0.06718126
6	0xba652f74	-0.0008742728
7	0x3cde687e	0.027149435
8	0xbe20db1c	-0.15708584
9	0xbd9c4a05	-0.076313056
10	0xbcb8caf8	-0.02255772
11	0x3cde271c	0.027118258
12	0xbed2eeb0	-0.4119773
13	0xbd9a45f3	-0.07532873
14	0x3d7bb31c	0.06145011
15	0xbc866dcb	-0.016409775
16	0xbe283966	-0.16428146
17	0xbd0778fd	-0.033074368
18	0x3dba4f4c	0.09097156
19	0xbde884b2	-0.113534346
20	0x3d5b095f	0.053475734
21	0xbe3281c3	-0.17432313
22	0xbd0d3550	-0.03447467
23	0xbe16a008	-0.14709485
24	0xbd9d41f7	-0.076785974
25	0x3dab6e34	0.08370629
26	0xbde34ea8	-0.11098987
27	0x3e3936c3	0.18087296
28	0x3dd0ae8d	0.10189543
29	0xbcc285e0	-0.023745477
30	0xba874360	-0.0010319762
31	0x3e15ed9c	0.14641422

mention_transformer_0/bottleneck_input/norm/add f4 [32]
0	0x3e5a0798	0.2129196
1	0xbdb2f166	-0.08737449
2	0x3e33050a	0.17482391
3	0x3e1cbeea	0.15307203
4	0x3d5be930	0.05368918
5	0xbcc44336	-0.02395783
6	0x3e5a9b78	0.21348369
7	0xbe48a79d	-0.1959519
8	0x3e260ff8	0.16217029
9	0xbe1741c0	-0.14771175
10	0xbd82804e	-0.063721284
11	0x3e6c31ff	0.23065947
12	0x3d0a0f46	0.033705972
13	0x3eb7b114	0.35877287
14	0xbd8e4fc5	-0.069488086
15	0x3d82d075	0.06387416
16	0xbe06ba2e	-0.1315696
17	0xbe0dcc64	-0.138475
18	0xbe47ffc5	-0.19531162
19	0xbd4296de	-0.04750716
20	0xbe4b8cd4	-0.1987794
21	0xbc80b762	-0.015712444
22	0x3ddbcd5e	0.1073253
23	0xbe97805c	-0.29590118
24	0x3dd610d4	0.104524285
25	0x3d7c9eca	0.06167487
26	0xbd370ad4	-0.04468806
27	0xbd984d32	-0.07436599
28	0x3e361ebe	0.17785165
29	0x3e63d8ad	0.22250624
30	0x3bfb589a	0.0076704742
31	0xbc470f20	-0.012149602

mention_transformer_1/bottleneck_input/norm/add f4 [32]
0	0x3d8fddc8	0.07024723
1	0xbe448fee	-0.1919553
2	0x3e0fe1d4	0.1405099
3	0xbd9e3cf3	-0.07726469
4	0xbe01cdcd	-0.12676163
5	0x3de48c4e	0.111595735
6	0xbe8344ef	-0.2563853
7	0xbdb72608	-0.08942801
8	0xbe22f90b	-0.15915315
9	0x3e8f6388	0.28005624
10	0xbe66bd9d	-0.22533269
11	0x3dd7e085	0.105408706
12	0x3e3c4d0e	0.18388769
13	0x3b83be30	0.004020475
14	0x3e1cde54	0.15319186
15	0x3d93d374	0.07218066
16	0xbef02015	-0.46899477
17	0xbe0d26c4	-0.13784319
18	0x3d481486	0.048847698
19	0x3e089eb7	0.13341795
20	0x3e13b571	0.14424683
21	0x3f0dc592	0.55379593
22	0xbdacdba3	-0.0844033
23	0xbce49aea	-0.0279059
24	0xbe93fbb5	-0.28902975
25	0x3dfb2fe8	0.12264997
26	0xbcc3422c	-0.023835264
27	0xbe41b450	-0.1891644
28	0x3e88464c	0.26616132
29	0x3c66948a	0.0140735
30	0x3cf7cd42	0.030249242
31	0xbdeb177f	-0.11479091

context_transformer_0/attention/value/add;context_transformer_0/attention/value/einsum/Einsum;context_transformer_0/attention/value/add/ReadVariableOp/resource f4 [32]
0	0x3d3e177f	0.046409126
1	0x3c879c7a	0.016554106
2	0x3c12067c	0.008912679
3	0xbc066c77	-0.008204571
4	0x3d01ca01	0.031686787
5	0xbd00182e	-0.03127306
6	0xbc2b61b4	-0.010460306
7	0xbd4ede94	-0.050505236
8	0xbcaa99a2	-0.020825211
9	0xbd2f1d48	-0.042752534
10	0xbceec827	-0.029148174
11	0xbd1e7a72	-0.03869099
12	0xbdd61cb0	-0.104546905
13	0x3e00440f	0.12525962
14	0xbdc85bac	-0.0978311
15	0xb92d0c7a	-0.00016503214
16	0xbda6783a	-0.081284
17	0x3d414064	0.04718055
18	0x3d47673f	0.048682448
19	0xbd1336d9	-0.03594098
20	0x3c91040e	0.017702129
21	0xbd0b7b8b	-0.034053367
22	0x3d6e8f71	0.058242265
23	0xbd6418f7	-0.05568787
24	0xbdd47b86	-0.10375123
25	0x3c538153	0.012909251
26	0xbbe2e2ca	-0.006924008
27	0xb9fa1ae9	-0.00047703765
28	0x3db6946d	0.08915029
29	0x3d83bcfb	0.064325295
30	0xbcf2b73e	-0.029628392
31	0x3cc6a9ea	0.024250943

context_transformer_0/bottleneck_input/norm/mul f4 [32, 32]
0	0xb9ea5e9b	-0.00044702445
1	0xbbb953f9	-0.0056557623
2	0x3de6a521	0.112619646
3	0xbe12f1b5	-0.14350016
4	0xbd716e61	-0.058943156
5	0x3e878e4a	0.26475745
6	0x3e08b7c9	0.13351358
7	0xbcd0d333	-0.025491333
8	0x3c9e103d	0.019294852
9	0xbd5dcd02	-0.05415059
10	0x3c0695ac	0.0082143955
11	0xbe261a74	-0.16221029
12	0xbe01a75c	-0.12661499
13	0xbe1543cb	-0.14576642
14	0xbe86081c	-0.26178062
15	0xbe6b98fb	-0.23007576
16	0x3e17493b	0.14774029
17	0x3d91e29c	0.071233004
18	0x3e1ebc83	0.15501599
19	0xbda3a0af	-0.07989632
20	0x3e17f06f	0.14837812
21	0x3d6ed113	0.058304857
22	0xbd7e5bf0	-0.062099397
23	0xbdee2050	-0.11627257
24	0x3d453608	0.04814723
25	0xbdeaf19a	-0.11471863
26	0x3dc99747	0.09843307
27	0x3ddd288d	0.1079875
28	0xbcb9a547	-0.022661818
29	0x3e51e77e	0.20498464
30	0xbd9e5207	-0.07730489
31	0x3ec5fe5d	0.38670626
32	0x3e7a6077	0.24450861
33	0x3dab7895	0.083726086
34	0x3d974ffb	0.07388302
35	0xbdcb6883	-0.099320434
36	0x3dc2ff9d	0.095214106
37	0x3ddbddc8	0.10735661
38	0x3b91dc7c	0.0044513326
39	0x3e7cd5b5	0.24690898
40	0x3c0fbb4b	0.0087726815
41	0xbe0208aa	-0.12698618
42	0xbd90ff63	-0.07079961
43	0xbcc60d4c	-0.024176262
44	0xbd5fe349	-0.054660115
45	0x3dd4faf5	0.10399429
46	0xbd8e8ccf	-0.06960451
47	0xbe25af67	-0.16180192
48	0xbdc45d8b	-0.095881544
49	0xbe267e42	-0.16259101
50	0x3e27fdb4	0.16405374
51	0x3dacc2bf	0.08435582
52	0xbeb0996c	-0.34492052
53	0x3e8793e2	0.26480013
54	0x3e36d491	0.17854525
55	0x3da6c9c8	0.081439555
56	0xbea5a56e	-0.32352775
57	0x3dba332c	0.090917915
58	0xbdf373c4	-0.11887315
59	0x3d2583c7	0.040408876
60	0x3d274e3d	0.0408461
61	0x3d884668	0.06654054
62	0x3e247644	0.1606074
63	0x3df21efe	0.118223175
64	0x3e3b8f01	0.1831627
65	0x3e00a39e	0.12562415
66	0xbd5282f5	-0.05139442
67	0xbdd0a2cf	-0.10187303
68	0xbed7e56c	-0.42167222
69	0x3e34c3b7	0.17652784
70	0x3e5b83cf	0.21437
71	0x3e64b367	0.22334062
72	0x3caccaef	0.02109286
73	0x3e971450	0.29507685
74	0x3e054be5	0.13017233
75	0x3d830209	0.063968726
76	0xbdbb7ae3	-0.09154298
77	0x3df1fbe2	0.11815621
78	0x3e786cc6	0.24260244
79	0x3d3e3da8	0.04644552
80	0x3e14cd3f	0.1453142
81	0x3d4a655c	0.04941307
82	0x3dd56787	0.10420137
83	0x3e8d90dc	0.2764958
84	0xbe5abf99	-0.21362151
85	0xbe6a95a6	-0.22908649
86	0xbd36afaf	-0.04460114
87	0xbe1ac598	-0.15114439
88	0x3f0293cb	0.51006764
89	0xbdbd9b6a	-0.092581585
90	0xbd9eebbb	-0.07759806
91	0xbd895ae0	-0.06706786
92	0x3d507a51	0.0508979
93	0xbe6b32e0	-0.22968626
94	0x3eaafa2a	0.33393985
95	0xbdf28202	-0.11841203
96	0x3de3f94f	0.11131536
97	0xbbfb12e9	-0.0076621664
98	0xbe081280	-0.13288307
99	0x3d208a21	0.03919423
100	0xbd1f0a43	-0.038828146
101	0xbd0d3e86	-0.034483455
102	0xbd7fb386	-0.062427066
103	0xbdb3c8b3	-0.08778515
104	0x3e55c7ba	0.20876971
105	0x3e5d988d	0.21640225
106	0xbe30c0c0	-0.17261028
107	0xbdb1f2ac	-0.08688864
108	0x3d6818f6	0.05666443
109	0xbe8f39ec	-0.27973878
110	0x3d09ccf0	0.03364271
111	0xbe274ae9	-0.1633717
112	0xbe4fe7e4	-0.20303303
113	0xbd22582c	-0.03963487
114	0x3e734d37	0.23759924
115	0x3e6503a1	0.22364666
116	0x3e403bca	0.18772808
117	0xbdc490cf	-0.095979325
118	0xbe0aee3b	-0.1356744
119	0xba715888	-0.00092066126
120	0x3e0e9e67	0.13927613
121	0xbcc43c42	-0.023954514
122	0x3daf49f5	0.08559028
123	0x3df9f354	0.12204614
124	0x3cd47293	0.02593354
125	0xbd0ee45f	-0.03488576
126	0xbde744b9	-0.11292405
127	0xbc2d1145	-0.010563199
128	0xbe6d4b40	-0.23173237
129	0x3d19114b	0.037370007
130	0xbccc43ba	-0.024934638
131	0x3ca21125	0.019783566
132	0x3afbb693	0.0019204192
133	0xbe346862	-0.17617944
134	0xbcef7a75	-0.029233197
135	0xbe5c1fca	-0.21496502
136	0xbd20f902	-0.039299972
137	0xbdbefeff	-0.093259804
138	0xbe7fa1a4	-0.24964005
139	0x3e5276d5	0.20553143
140	0xbdda2120	-0.10650849
141	0xbe863f3a	-0.26220113
142	0xbd8e222c	-0.069401115
143	0x3dc30732	0.09522857
144	0x3e432b20	0.1905942
145	0xbe7b9989	-0.24570288
146	0x3e91f629	0.28508118
147	0xbd995e55	-0.074886955
148	0xbd6b7baf	-0.057491
149	0x3e0c1aa2	0.13682035
150	0xbe72c05d	-0.23706193
151	0x3db2685b	0.087113105
152	0xbe5fbe21	-0.21849872
153	0xbcadc43a	-0.021211732
154	0xbc2e45ef	-0.010636791
155	0x3e2a1dc6	0.1661292
156	0xbdf0d082	-0.1175852
157	0xbd899ab9	-0.06718964
158	0xbe346ddb	-0.17620032
159	0x3e45f10b	0.19330232
160	0x3e912104	0.283455
161	0x3e7b2192	0.24524525
162	0xbdb9a8c4	-0.090653926
163	0x3e9f7b9e	0.31149
164	0xbe37b628	-0.17940581
165	0x3e53dcdd	0.20689721
166	0x3f2bbdc6	0.67086446
167	0x3e38c787	0.18044864
168	0x3ef6ba50	0.4818902
169	0xbdd322cc	-0.10309371
170	0x3d59071f	0.052985307
171	0x3e9375c1	0.28800777
172	0x3b2c27f3	0.0026268929
173	0xbe47c476	-0.19508538
174	0x3f1a07f6	0.601684
175	0xbd3be51e	-0.0458728
176	0xbf55a277	-0.83451027
177	0xbdd19ed9	-0.10235376
178	0x3e72f075	0.2372454
179	0x3e4d876c	0.2007119
180	0xbdc4bfd1	-0.096068986
181	0xbeb479fc	-0.35249317
182	0x3b348569	0.002754534
183	0xbd6489b6	-0.055795394
184	0x3f6253f2	0.8840934
185	0x3d5cd9e4	0.053918734
186	0x3e4debd4	0.20109493
187	0x3e3d5ebf	0.18493174
188	0xbd3c3a56	-0.04595407
189	0xbdccc816	-0.09999101
190	0x3d4a2519	0.049351785
191	0xbb4a8db9	-0.0030907227
192	0xbe1226f0	-0.14272666
193	0x3cd3df24	0.025863238
194	0xbb868e36	-0.0041063083
195	0x3df20d38	0.118189275
196	0xbe815637	-0.2526109
197	0xbd11ce33	-0.035597038
198	0x3eab32fb	0.33437333
199	0x3dae424b	0.08508738
200	0xbe2fefee	-0.1718137
201	0xbd318e4e	-0.043348603
202	0xbe120cda	-0.14262715
203	0x3c28e2fb	0.010308023
204	0xbe2464fd	-0.16054149
205	0xbe3496c9	-0.17635645
206	0xbe44d956	-0.19223532
207	0xbdea66fe	-0.114454255
208	0x3e633abc	0.22190374
209	0x3da2efda	0.07955904
210	0x3da6f55f	0.081522696
211	0x3e366cd0	0.17814946
212	0xbe56e122	-0.20984319
213	0xbe84d4d5	-0.25943628
214	0xbdb87c98	-0.09008139
215	0x3dcac13d	0.099001385
216	0x3e5464a3	0.20741515
217	0xbe4bb4cf	-0.19893192
218	0x3cab6d7d	0.020926232
219	0x3e6eb72f	0.23312066
220	0xbe2c3f83	-0.16821103
221	0x3df48ff1	0.11941517
222	0xbdda2fb9	-0.106536336
223	0x3d9fde19	0.07806034
224	0x3e2d96b1	0.16952015
225	0x3c118e18	0.008883975
226	0x3e2ed025	0.17071588
227	0xbd90dc9d	-0.07073329
228	0xbddf7b96	-0.10912244
229	0x3dc2e4be	0.09516285
230	0xbee7d2de	-0.45278066
231	0x3e95b548	0.2923987
232	0x3d289369	0.041156206
233	0xbf177da1	-0.5917607
234	0x3e2bc78b	0.16775338
235	0xbe056e36	-0.13030323
236	0x3e78aba6	0.24284229
237	0x3ebb341d	0.36563197
238	0xbee37808	-0.44427514
239	0xbe3f396c	-0.18674248
240	0x3ebbf724	0.3671199
241	0x3e63632c	0.222058
242	0xbe890363	-0.26760396
243	0xbdc3f239	-0.09567685
244	0x3e90e5de	0.28300375
245	0xbd4db38d	-0.05022006
246	0x3f12c2a2	0.57328236
247	0xbe6628a2	-0.22476438
248	0xbdb53ff8	-0.08850092
249	0x3ebd1bd6	0.369353
250	0xbcdb4290	-0.026765138
251	0xbe9d0038	-0.3066423
252	0x3ec15bff	0.377655
253	0x3c2716d6	0.010198316
254	0x3ef169f5	0.4715115
255	0x3de0fd8f	0.109858625

context_transformer_0/kq_shared_bottleneck/norm/mul;context_transformer_0/kq_shared_bottleneck/norm/add;context_transformer_0/attention/key/einsum/Einsum;context_transformer_0/attention/key/add;context_transformer_0/attention/value/einsum/Einsum;context_transformer_0/attention/key/add/ReadVariableOp/resource f4 [32]
0	0x3df7e0e3	0.121034406
1	0x3e00d799	0.12582244
2	0xbddd6411	-0.10810102
3	0xbde3214a	-0.11090334
4	0x3da2843e	0.079353794
5	0xbdeb37b6	-0.114852354
6	0xbe0a2f5a	-0.13494626
7	0xbdf31b73	-0.1187047
8	0x3d9af42f	0.075661056
9	0xbd101a13	-0.035181116
10	0xbdba2e86	-0.09090905
11	0xbe3ec775	-0.18630774
12	0x3d398207	0.04529002
13	0xbdfa7863	-0.12229993
14	0xbca7f997	-0.020504756
15	0xbd4ea9b9	-0.05045483
16	0x3e2fa23e	0.17151734
17	0xbe2247c1	-0.15847684
18	0x3e2f0875	0.1709307
19	0x3cef2dc1	0.029196622
20	0xbe18945c	-0.14900345
21	0xbe21a41f	-0.15785263
22	0xbe0e5c25	-0.13902338
23	0x3e1e9ce7	0.15489541
24	0xbcc191de	-0.023629125
25	0x3dccaf90	0.099944234
26	0xbc7fd87e	-0.015615581
27	0xbce20487	-0.02759005
28	0xbd17b37d	-0.037036408
29	0xbbf5dd97	-0.007503222
30	0xbd6ceb9e	-0.05784189
31	0x3cd35ddd	0.025801593

context_transformer_0/kq_shared_bottleneck/norm/mul;context_transformer_0/kq_shared_bottleneck/norm/add;context_transformer_0/attention/key/einsum/Einsum;context_transformer_0/attention/key/add;context_transformer_0/attention/value/einsum/Einsum;context_transformer_0/attention/key/add/ReadVariableOp/resource1 f4 [32, 32]
0	0x3de120e2	0.109926
1	0x3d8b5aab	0.06804403
2	0x3e0e2225	0.13880213
3	0xbdd1e66a	-0.10249026
4	0x3e126ac8	0.14298546
5	0xbcb81e49	-0.022475379
6	0xbe7c7152	-0.24652603
7	0xbe124d75	-0.1428736
8	0x3cf852d2	0.03031293
9	0x3cb69f6d	0.022292817
10	0xbdce90f8	-0.10086244
11	0x3e0e9670	0.13924575
12	0x3da9f8a8	0.082993805
13	0x3d98fa56	0.07469623
14	0x3dcac2f5	0.09900466
15	0x3d609ff3	0.05484004
16	0xbe064b55	-0.13114674
17	0x3dd78e19	0.1052515
18	0xbd9365eb	-0.07197174
19	0xbe925ea1	-0.2858782
20	0x3dcb6762	0.09931828
21	0xbcbe268f	-0.023211746
22	0xbe260ecb	-0.1621658
23	0x3e20a7f6	0.15689072
24	0x3cafe904	0.021473415
25	0xbdf19ed7	-0.117978744
26	0x3d562ea0	0.05229056
27	0x3d8932b8	0.06699127
28	0xbe42699f	-0.18985604
29	0x3db8313d	0.089937665
30	0x3e9eb83d	0.30999938
31	0x3eb1bf92	0.3471647
32	0x3e511889	0.20419516
33	0x3e65579b	0.223967
34	0x3c7bff32	0.0153806675
35	0xbe7ca915	-0.24673875
36	0x3e589bd0	0.21153188
37	0xbe609215	-0.21930726
38	0xbe3c989a	-0.18417588
39	0xbe499fd4	-0.19689876
40	0x3e25bee9	0.16186108
41	0x3e64dd36	0.2235001
42	0xbddef5bc	-0.10886714
43	0x3e8de543	0.27713975
44	0x3e95d58c	0.29264486
45	0x3de3c16f	0.11120879
46	0x3e5b865c	0.21437973
47	0x3e6b8d53	0.2300313
48	0xbe9aca59	-0.30232504
49	0x3e5762d5	0.21033795
50	0x3ded28e1	0.11580063
51	0x3dae99c5	0.08525423
52	0x3e39bf08	0.18139279
53	0x3d818467	0.06324082
54	0xbe4a78a3	-0.19772582
55	0x3d20caea	0.039256014
56	0x3e6c0ac6	0.23050985
57	0xbe5c19e4	-0.21494251
58	0x3ce79dc4	0.02827347
59	0x3dcffa33	0.101551436
60	0xbe621bd0	-0.22080922
61	0x3e2a1e76	0.16613182
62	0x3e4e6d55	0.20158894
63	0x3ec24c7f	0.37948987
64	0xbe197a28	-0.14988005
65	0xbe0352e4	-0.12824589
66	0xbe3a11eb	-0.18170898
67	0x3dffc263	0.12488248
68	0xbe0dcdb7	-0.13848005
69	0xbc229733	-0.009923744
70	0x3eaacc08	0.33358788
71	0x3e485020	0.19561815
72	0xbd0e6649	-0.034765515
73	0x3d90b04f	0.07064878
74	0x3e224578	0.15846813
75	0xbe240f79	-0.16021527
76	0xbdcd5716	-0.10026376
77	0xbe19ba65	-0.1501251
78	0xbdc59f5f	-0.09649538
79	0xbd2544eb	-0.04034893
80	0x3da9bf12	0.08288397
81	0xbe06614f	-0.13123058
82	0x3e094dee	0.13408634
83	0x3eda791c	0.42670524
84	0xbd389e3b	-0.045072775
85	0x3dc286db	0.09498378
86	0x3ddaec12	0.10689558
87	0xbe5ea06e	-0.21740887
88	0x3bea81e2	0.0071565965
89	0x3e0eeed8	0.13958299
90	0xbd93465c	-0.07191154
91	0xbe054e08	-0.13018048
92	0x3e62202f	0.2208259
93	0xbe283bfb	-0.1642913
94	0xbe99843d	-0.29983702
95	0xbe938dbb	-0.2881907
96	0xbe3f21c4	-0.18665224
97	0xbe776b6b	-0.2416207
98	0xbdf53e82	-0.11974813
99	0x3e89c780	0.2691002
100	0xbe054385	-0.13014038
101	0x3de0704d	0.1095892
102	0x3e88106c	0.2657503
103	0x3e7408c6	0.23831472
104	0xbdc13e4a	-0.09435709
105	0xbdcf8cae	-0.101342544
106	0x3d8ab312	0.06772436
107	0xbe8e9609	-0.27848843
108	0xbe6aca9e	-0.22928855
109	0xbe07625a	-0.13221112
110	0xbe6313e7	-0.22175561
111	0xbe5da8ed	-0.21646471
112	0x3e0dd09c	0.1384911
113	0xbe74cb74	-0.23905736
114	0xbd08722b	-0.033312004
115	0x3d103dd3	0.03521521
116	0xbe187693	-0.14888982
117	0xbb475b29	-0.0030419326
118	0x3e0e26ef	0.1388204
119	0xbdc1ff73	-0.09472551
120	0xbe389659	-0.18026103
121	0x3e665d89	0.22496618
122	0xbd464501	-0.04840565
123	0xbde15e86	-0.11004357
124	0x3e94fdc8	0.2909987
125	0xbe38c941	-0.18045522
126	0xbe8834ea	-0.2660287
127	0xbe9dac37	-0.30795452
128	0x3ddd4799	0.10804672
129	0xbe81a93a	-0.25324422
130	0x3dee2cc4	0.11629632
131	0x3cc98ebc	0.024604194
132	0x3da596eb	0.08085426
133	0x3e32d835	0.17465289
134	0xbead26ae	-0.33818573
135	0xbdb37622	-0.087627664
136	0xbe0af3cd	-0.13569565
137	0xbe3bf747	-0.18356048
138	0xbdf80a60	-0.12111354
139	0x3d425f50	0.04745418
140	0xbe227fa5	-0.15869005
141	0x3de3fd1e	0.11132263
142	0xbe13bfe0	-0.14428663
143	0xbe2bcee7	-0.16778146
144	0x3da43866	0.0801857
145	0xbd7a60a0	-0.061127305
146	0xbeb88249	-0.360369
147	0xbf1449c3	-0.5792505
148	0xbc64ec73	-0.0139723895
149	0xbe11d316	-0.14240679
150	0xbe169f78	-0.1470927
151	0x3e8c5843	0.27411088
152	0xbe883f19	-0.2661064
153	0xbce0aec5	-0.027427087
154	0x3de44f61	0.11147953
155	0x3d5ad81a	0.053428747
156	0xbdf26bdf	-0.11836981
157	0x3dac8eaa	0.084256485
158	0x3edcdf67	0.43139192
159	0x3eae2ddb	0.3401936
160	0xbe2a0824	-0.16604668
161	0x3b9182d0	0.004440643
162	0xbe12435a	-0.14283505
163	0x3dbf7df5	0.09350196
164	0xbdc545ce	-0.09632455
165	0xbd7fbd7e	-0.062436573
166	0x3e8cd59b	0.27506718
167	0x3e282ceb	0.16423385
168	0x3cb60113	0.02221731
169	0x39b4a726	0.0003445681
170	0x3d94b6b2	0.07261409
171	0xbdd135fb	-0.10215374
172	0xbccd8f04	-0.02509261
173	0xbdb95817	-0.09050005
174	0xbc37f713	-0.011228341
175	0x3caa4b7a	0.020787943
176	0x3dbaae94	0.091153294
177	0xbd6bcb23	-0.057566773
178	0x3dfa91e9	0.122348614
179	0x3ec01101	0.37512973
180	0xbd9835f0	-0.07432163
181	0x3d2ff7ca	0.04296092
182	0x3e0e440d	0.13893147
183	0xbe2796ae	-0.16366073
184	0x3db33d46	0.08751921
185	0x3e20d49d	0.15706106
186	0x3a2f5d2c	0.0006689604
187	0xbd82ed1b	-0.063928805
188	0x3e460919	0.19339408
189	0xbddc3c9b	-0.10753747
190	0xbeb0d62f	-0.3453841
191	0xbe9fb4b9	-0.31192568
192	0xbe22d65c	-0.15902084
193	0xbddd2c0b	-0.10799416
194	0xbd669dcb	-0.056302827
195	0x3e2189cc	0.15775222
196	0xbe290d65	-0.16509016
197	0x3deb6302	0.114934936
198	0x3e5efc7d	0.21776004
199	0x3e4bc519	0.19899406
200	0xbda15e45	-0.078793086
201	0xbdbf76fc	-0.09348866
202	0x3dc5e8f4	0.09663573
203	0xbe2ac93f	-0.16678332
204	0xbe232676	-0.1593264
205	0xbdbcca46	-0.09218268
206	0xbe08b700	-0.13351059
207	0xbdb03677	-0.08604138
208	0x3e5f950e	0.21834204
209	0xbe087f73	-0.13329868
210	0x3d8e4aa0	0.06947827
211	0x3de2c89e	0.11073421
212	0xbe082024	-0.1329351
213	0xbc8da34f	-0.017289786
214	0x3e644e76	0.22295555
215	0xbdb15654	-0.08659044
216	0xbddbd90d	-0.107347585
217	0x3e019f6b	0.1265847
218	0x3a4f762b	0.0007914032
219	0xbd861571	-0.065470584
220	0x3e483ac8	0.19553673
221	0xbdff852d	-0.12476573
222	0xbe82997c	-0.25507724
223	0xbed4e92b	-0.41584143
224	0xbdf79725	-0.120893754
225	0xbdbdced1	-0.09267963
226	0xbe1e3b1a	-0.15452233
227	0x3e40bc20	0.18821764
228	0xbe0cecab	-0.13762157
229	0xbbce250f	-0.006291039
230	0x3e99f177	0.30067036
231	0x3e2f8c3a	0.17143336
232	0xbca987ec	-0.020694695
233	0x3c5e2d50	0.013560608
234	0x3df7d601	0.12101365
235	0xbe462037	-0.19348226
236	0xbe0efa62	-0.13962701
237	0xbdf6c5c0	-0.120494366
238	0xbdffcab7	-0.12489837
239	0xbd8449cc	-0.06459388
240	0x3d99703e	0.074921116
241	0xbe12b85c	-0.1432814
242	0x3df6a238	0.120426595
243	0x3eb2ab74	0.34896433
244	0xbd372ea6	-0.04472222
245	0x3d0bccd2	0.03413088
246	0x3e0c46cf	0.13698886
247	0xbe13a190	-0.144171
248	0xbd60de96	-0.054899774
249	0x3e147e32	0.14501265
250	0xbd1eda79	-0.03878257
251	0xbdc28c67	-0.09499436
252	0x3e51791f	0.2045636
253	0xbe1fc024	-0.1560064
254	0xbe9827c1	-0.2971783
255	0xbe9c4803	-0.3052369

context_transformer_0/kq_shared_bottleneck/norm/mul;context_transformer_0/kq_shared_bottleneck/norm/add;context_transformer_0/attention/query/einsum/Einsum;context_transformer_0/attention/query/add;context_transformer_0/attention/value/einsum/Einsum;context_transformer_0/attention/query/add/ReadVariableOp/resource;context_transformer_0/attention/Mul;context_transformer_0/attention/Mul/y f4 [32]
0	0xbe2e0733	-0.16994934
1	0xbe4ef237	-0.20209585
2	0x3e5055b9	0.203452
3	0x3e5361e4	0.20642811
4	0xbe1a31e8	-0.150581
5	0x3e27862d	0.16359778
6	0x3e3db387	0.18525515
7	0x3e4528c3	0.1925383
8	0xbdae6a97	-0.08516424
9	0xbe214805	-0.1575013
10	0xbe32f616	-0.17476687
11	0xbd552fda	-0.052047588
12	0xbe128bd7	-0.14311157
13	0x3d027144	0.0318463
14	0xbde3c046	-0.111206576
15	0x3d8c8f0c	0.068632215
16	0x3dfce65a	0.123486236
17	0xbdc797bd	-0.09745739
18	0x3dc5765a	0.096417144
19	0x3dd0b514	0.10190788
20	0xbe1810e7	-0.14850198
21	0xbe29107c	-0.16510195
22	0xbe141407	-0.14460765
23	0x3e05f015	0.13079865
24	0xbd7cd9cd	-0.06173115
25	0xbcfa1a04	-0.030529983
26	0xbc239045	-0.009983127
27	0xbd0871db	-0.033311706
28	0xbd20aa38	-0.039224833
29	0x3dfe6963	0.12422445
30	0xbdacc005	-0.08435062
31	0x3d818a4f	0.063252084

context_transformer_0/kq_shared_bottleneck/norm/mul;context_transformer_0/kq_shared_bottleneck/norm/add;context_transformer_0/attention/query/einsum/Einsum;context_transformer_0/attention/query/add;context_transformer_0/attention/value/einsum/Einsum;context_transformer_0/attention/query/add/ReadVariableOp/resource;context_transformer_0/attention/Mul;context_transformer_0/attention/Mul/y1 f4 [32, 32]
0	0xbcf7de25	-0.030257294
1	0xbd837d7f	-0.06420421
2	0x3cd676d0	0.026179701
3	0xbd9f967d	-0.07792375
4	0x3b7affe8	0.0038299505
5	0x3cd1cbbe	0.025609847
6	0xbaf64e5e	-0.0018791666
7	0x3c72c286	0.014816886
8	0x3bfef73b	0.007780937
9	0xbcfe3363	-0.031030362
10	0x3c8018bc	0.015636794
11	0xbb07fdc5	-0.0020750624
12	0xbce804be	-0.028322574
13	0x3cf66502	0.030077461
14	0x3d34ebac	0.044170067
15	0xbd2ebee6	-0.042662524
16	0x3d9d6e8d	0.076871015
17	0xbc8265af	-0.015917627
18	0x3d2f8ff1	0.042861883
19	0x3dab5910	0.08366597
20	0x3b3a75b1	0.0028451497
21	0xbd627c1c	-0.05529414
22	0x3d27cba0	0.040965676
23	0x3d7298f1	0.059227888
24	0xbd78842e	-0.06067293
25	0xbcfd73ce	-0.030939009
26	0x3cbddf89	0.023177879
27	0x3ccb1bbf	0.024793504
28	0xba18f861	-0.0005835351
29	0xbc3b3c36	-0.01142793
30	0xbccb10e8	-0.024788335
31	0xbe0edc1a	-0.1395115
32	0xbd3e8354	-0.046511963
33	0xbdcb9608	-0.099407256
34	0xbca9eefd	-0.020743841
35	0xbdc0936e	-0.0940312
36	0x3daad2a3	0.08340957
37	0xbd952af7	-0.072835855
38	0x3d68f196	0.05687102
39	0x3d2c8d8e	0.042127185
40	0x3d6054ee	0.054768495
41	0x3d3e15ef	0.046407636
42	0x3d66f1c1	0.0563829
43	0xbc89cc5a	-0.016821075
44	0xbc6abce1	-0.014327259
45	0x3d1bd0d9	0.03804097
46	0x3d8e023d	0.06934021
47	0xbd0275c6	-0.0318506
48	0xbcb2dcc3	-0.021833783
49	0x3c34b266	0.011028862
50	0x3d6a0b8f	0.05713993
51	0x3e5de2e2	0.2166858
52	0x3d7d9761	0.061911944
53	0xbba45d9f	-0.0050160433
54	0xbd2a0ff6	-0.041519128
55	0x3c1aefb4	0.009456564
56	0xbd2d6001	-0.042327885
57	0xbdb23b08	-0.087026656
58	0x3d05afc2	0.03263832
59	0x3d29eff3	0.0414886
60	0x3cbcfe4d	0.023070479
61	0xbcf094bb	-0.029367795
62	0xbdc61f09	-0.09673888
63	0xbd4ebda6	-0.05047383
64	0x3cf62f9f	0.030052004
65	0x3da17aa5	0.07884721
66	0xbc04386f	-0.008070095
67	0x3dad2dd1	0.084560044
68	0xbc06fa39	-0.008238369
69	0xbd48fb28	-0.049067646
70	0xbbba0c99	-0.0056777713
71	0xbca2c123	-0.019867485
72	0x3c6216d0	0.013799384
73	0x3d535523	0.051594865
74	0xbceb9ee0	-0.028762281
75	0x3cf36b52	0.02971426
76	0x3d92eddd	0.07174275
77	0xbce1b1ba	-0.027550567
78	0xbd061212	-0.032732077
79	0x3d9062e5	0.07050113
80	0xbdb117fc	-0.08647153
81	0x3d347b8d	0.04406314
82	0xbd30dbcf	-0.043178376
83	0xbd0a82ce	-0.03381615
84	0x3c13de37	0.009025148
85	0x3d9b0c40	0.07570696
86	0xbd22b654	-0.039724663
87	0xbdae7a27	-0.085193925
88	0x3db9bdbe	0.090693936
89	0x3d1fa896	0.038979135
90	0xbcf55b90	-0.029950887
91	0xbd39064c	-0.04517202
92	0xbc74e5ae	-0.014947338
93	0x3c839666	0.016062927
94	0x3c98892a	0.018620092
95	0x3e2d6641	0.16933538
96	0x3cecb612	0.028895412
97	0x3dc963a5	0.09833459
98	0x3cef1397	0.029184146
99	0x3da7e53f	0.08198022
100	0xbd7c767c	-0.061636433
101	0x3d3ea69f	0.04654562
102	0xbd4677d6	-0.04845413
103	0xbd1c5ede	-0.03817641
104	0xbd241714	-0.04006107
105	0xbcf55616	-0.029948276
106	0xbd5bb43c	-0.05363868
107	0x3d09641d	0.03354274
108	0x3d3e58c0	0.046471357
109	0xbd037073	-0.03208966
110	0xbd6f344d	-0.058399487
111	0x3d98aa8b	0.074544035
112	0x3bab62a7	0.005230266
113	0x3cc262da	0.023728777
114	0xbd44a4ad	-0.04800861
115	0xbe1751a1	-0.14777233
116	0xbd561d92	-0.052274294
117	0x3ce84a05	0.028355608
118	0x3cee4397	0.029084964
119	0xbd35720c	-0.044298217
120	0x3db2aaca	0.08723982
121	0x3d91a4c8	0.07111508
122	0xbd1e5223	-0.03865255
123	0xbcb35b13	-0.021894014
124	0xbcc8d8d1	-0.024517449
125	0x3d101d87	0.03518441
126	0x3d793d0d	0.06084924
127	0x3d735b85	0.05941345
128	0x3b21d588	0.0024693925
129	0xbd16411e	-0.036683194
130	0x3ca597f2	0.020214055
131	0xbd9a6e62	-0.07540585
132	0xbdd1e6f3	-0.10249128
133	0x3e308c02	0.17240909
134	0xbd5bdfa4	-0.053680077
135	0xbce094a4	-0.027414627
136	0xbda3d844	-0.08000234
137	0xbdfd7990	-0.12376702
138	0xbd58aa1a	-0.052896596
139	0x3c0e7188	0.00869406
140	0xbd75faf3	-0.060053777
141	0x3cb5b65c	0.022181682
142	0xbcd184ee	-0.025576081
143	0xbd7f921e	-0.062395208
144	0x3e3814ea	0.17976728
145	0xbcf529e6	-0.029927205
146	0x3b2a1971	0.0025955106
147	0xbd2316d6	-0.0398167
148	0xbdc1b6b7	-0.09458678
149	0xbe060648	-0.13088334
150	0x3e032a0e	0.12809011
151	0x3deed2d3	0.11661305
152	0xbda5dc6d	-0.080986835
153	0x3d0300d3	0.031983208
154	0x3d2a706d	0.041611124
155	0x3d613fe3	0.054992568
156	0xbd61daf4	-0.05514045
157	0x3d206b1c	0.039164647
158	0x3d59c905	0.053170223
159	0xbe924624	-0.28569138
160	0x3d1516a8	0.03639856
161	0x3d4c7198	0.04991302
162	0xbbf12380	-0.0073589683
163	0x3da05d3e	0.078302845
164	0x3c8e7030	0.01738748
165	0xbd8a88ca	-0.06764372
166	0x3bea7944	0.0071555693
167	0xbc4095e2	-0.011754485
168	0x3ba5a65d	0.0050552324
169	0x3d5e1231	0.054216567
170	0xbb8063ee	-0.0039181625
171	0x3c2dc05f	0.010604947
172	0x3d3e56a1	0.046469335
173	0xbcb22eb4	-0.021750785
174	0xbce462da	-0.027879167
175	0x3d7ff00b	0.062484782
176	0xbdcfc4a4	-0.10144928
177	0x3ca0c473	0.019624924
178	0xbd350bbf	-0.044200655
179	0xbd32f792	-0.043693133
180	0x3cdad4c1	0.026712777
181	0x3d8f1659	0.06986684
182	0xbd86e5cb	-0.06586798
183	0xbd5a9f05	-0.05337431
184	0x3d961ee3	0.0733011
185	0x3cbacbfd	0.022802347
186	0xbcd807e6	-0.026370954
187	0xbcd3e8a7	-0.025867773
188	0x3c3fd8c5	0.011709397
189	0x3bf41fe3	0.0074500903
190	0x3bb3fb41	0.0054925983
191	0x3e3bf1ef	0.18354009
192	0x3d2ab795	0.041678984
193	0x3d921035	0.071319975
194	0x3bd46452	0.0064816857
195	0x3dcfa4cb	0.10138854
196	0xbd078dbc	-0.033094153
197	0x3c85734a	0.016290326
198	0xbce297a0	-0.027660191
199	0xbc28b3bc	-0.010296758
200	0xbcea41b2	-0.02859578
201	0x3bfb51b9	0.007669654
202	0xbd079a90	-0.033106387
203	0xbb8f1bac	-0.0043673124
204	0x3c5cec98	0.013484143
205	0xbcde652c	-0.027147852
206	0xbd827310	-0.06369603
207	0x3cd66b86	0.026174318
208	0xbd1254c1	-0.03572536
209	0xba257ad7	-0.0006312555
210	0xbd44d961	-0.04805887
211	0xbe185e22	-0.14879659
212	0xbd10cdf9	-0.03535268
213	0x3d48c4ee	0.04901593
214	0xbc88c414	-0.01669506
215	0xbd1e5570	-0.0386557
216	0x3d55c955	0.05219396
217	0x3d8521cc	0.06500587
218	0xbce81222	-0.028328959
219	0xbd258b3c	-0.040415987
220	0xbbc3e880	-0.005978644
221	0xb8bdd4e3	-9.0518755e-05
222	0x3d5011ef	0.050798353
223	0x3de4fa36	0.111805364
224	0x3cdf636e	0.027269091
225	0x3da32427	0.0796588
226	0xba9282b3	-0.0011177867
227	0x3da93037	0.082611494
228	0xbc9ff547	-0.019526137
229	0xbc93eef2	-0.018058274
230	0x3acc292a	0.0015576233
231	0xbc8abf60	-0.016936958
232	0xbc3e9804	-0.011632923
233	0x3cf9b554	0.030481972
234	0xbca14be2	-0.019689504
235	0x3ca3fa17	0.020016713
236	0x3d694e54	0.056959465
237	0xbce14308	-0.027497783
238	0xbd26a366	-0.040683173
239	0x3d94ff2c	0.07275233
240	0xbd760c65	-0.060070414
241	0x3d18e89a	0.0373312
242	0xbd330251	-0.04370338
243	0xbd5e738a	-0.054309405
244	0x3b15650d	0.0022795827
245	0x3d878254	0.06616655
246	0xbcc00769	-0.023441033
247	0xbd90a3e9	-0.070625134
248	0x3da5302d	0.080658294
249	0x3d4e2734	0.050330356
250	0xbd018ce1	-0.031628493
251	0xbd27dafc	-0.040980324
252	0xbc8b3a0f	-0.016995458
253	0x3c24e672	0.010064708
254	0x3cadd3b6	0.021219116
255	0x3e119e68	0.14220583

context_transformer_0/ffn_layer_0/intermediate_dense/einsum/Einsum;context_transformer_0/ffn_layer_0/intermediate_dense/Relu;context_transformer_0/ffn_layer_0/intermediate_dense/add f4 [32]
0	0xbed06cf3	-0.40708122
1	0xbea31c6a	-0.31857616
2	0xbeb9512d	-0.36194745
3	0xbea296ca	-0.31755668
4	0xbf022e34	-0.5085175
5	0xbe995e44	-0.2995473
6	0xbe7d53f3	-0.24739055
7	0xbd19d015	-0.037551958
8	0xbe37b5b7	-0.17940412
9	0xbe5893db	-0.21150152
10	0xbef25ece	-0.47337955
11	0xbef55d44	-0.4792272
12	0xbf06bbb8	-0.52630186
13	0xbe80efe5	-0.25183025
14	0xbf0d7383	-0.5525438
15	0xbee01bb2	-0.4377113
16	0xbe14e03d	-0.14538665
17	0xbe6cf9d9	-0.23142184
18	0xbcf35779	-0.029704796
19	0xbebdccbd	-0.37070265
20	0xbee9ff28	-0.4570248
21	0xbe7e1523	-0.2481275
22	0xbe9442d2	-0.2895723
23	0xbf1412b1	-0.5784102
24	0xbe36ee76	-0.17864403
25	0xbf255a7a	-0.6459118
26	0xbe844d2b	-0.25840124
27	0xbe41d098	-0.18927228
28	0xbf135149	-0.57545906
29	0xbf0d5613	-0.55209464
30	0xbccb554e	-0.02482095
31	0xbefc91c9	-0.49329975

context_transformer_0/attention/norm/mul;context_transformer_0/attention/norm/add;context_transformer_0/ffn_layer_0/intermediate_dense/einsum/Einsum;context_transformer_0/ffn_layer_0/intermediate_dense/Relu;context_transformer_0/ffn_layer_0/intermediate_dense/add f4 [32, 32]
0	0xbd94ec0d	-0.072715856
1	0x3cd29bf0	0.025709122
2	0x3ec08b05	0.37606063
3	0x3e6318d5	0.22177441
4	0xbd8805ce	-0.06641732
5	0xbdb0e28f	-0.086369626
6	0xbde6c2ec	-0.11267647
7	0x3e4680ab	0.1938502
8	0x3e3bb60d	0.18331166
9	0x3eb9a5a7	0.36259195
10	0xbea06ef8	-0.31334662
11	0xbe5a32d1	-0.21308447
12	0xbc2fcdb3	-0.010730195
13	0xbd7d934f	-0.061908063
14	0xbdc2d684	-0.09513572
15	0xbd832282	-0.06403066
16	0xbd9b2acc	-0.07576522
17	0xbe6077f6	-0.21920761
18	0x3d84cb86	0.064841315
19	0x3c76e4d6	0.015069207
20	0xbe8e50d3	-0.2779604
21	0xbb5c44eb	-0.0033610414
22	0x3baaba45	0.0052101933
23	0xbe06349d	-0.13106008
24	0xbd6c4214	-0.057680205
25	0x3e05afdb	0.13055365
26	0x3e21606a	0.15759435
27	0xbc3817bd	-0.011236128
28	0xbe0c8592	-0.13722828
29	0xbde2c641	-0.1107297
30	0xbdf45661	-0.11930538
31	0xbde9a052	-0.11407532
32	0xbda3d2ef	-0.07999217
33	0x3d984948	0.07435852
34	0xbd8fa995	-0.07014767
35	0xbe9d2d78	-0.30698752
36	0xbe577103	-0.21039204
37	0xbf0e2572	-0.55525887
38	0x3d406fff	0.046981808
39	0xbd9ee5a0	-0.07758641
40	0xbe006ef4	-0.12542325
41	0x3ed1d435	0.40982214
42	0x3e69483d	0.22781463
43	0x3e27527f	0.16340064
44	0xbdb43829	-0.08799774
45	0xbd7d6e07	-0.06187251
46	0xb95837c2	-0.00020620137
47	0xbd851f2f	-0.065000884
48	0x3e845d88	0.2585261
49	0xbddfd965	-0.109301366
50	0xbe4be875	-0.19912894
51	0x3d8fc700	0.07020378
52	0xbdaec30f	-0.08533298
53	0x3dd3b291	0.10336793
54	0xbe3b79c8	-0.18308175
55	0xbc9cf384	-0.019159086
56	0x3e264d41	0.16240408
57	0x3cfeefb9	0.031120168
58	0xbd4b11e5	-0.049577612
59	0xbe668da3	-0.22514968
60	0xbe07eda6	-0.1327425
61	0xbe47dad8	-0.19517076
62	0xbde78729	-0.11305077
63	0xbebc59b1	-0.3678718
64	0xbe5e8b84	-0.21732908
65	0xbda58e4e	-0.08083783
66	0xbe329e49	-0.17443193
67	0x3d58ca7e	0.052927487
68	0x3e1ea0be	0.15491006
69	0x3e680d54	0.22661334
70	0xbeccc891	-0.3999677
71	0xbdc98a68	-0.09840852
72	0xbe816501	-0.25272372
73	0x3e0e6011	0.13903834
74	0xbe1e69e6	-0.15470085
75	0xbd38deef	-0.04513448
76	0x3ea461ce	0.3210587
77	0x3e116fb4	0.14202768
78	0xbea858a8	-0.3288014
79	0x3cd7b6cb	0.02633228
80	0xbe1808af	-0.14847063
81	0x3e1faf51	0.15594222
82	0x3c142eae	0.009044332
83	0xbe228c2d	-0.15873785
84	0xbe6633c2	-0.22480682
85	0x3e090ec5	0.1338454
86	0x3cd284d8	0.02569811
87	0xbed850c5	-0.42249122
88	0x3e539098	0.20660627
89	0xbaf2c709	-0.0018522452
90	0x3e8f9c1e	0.28048795
91	0xbe04f523	-0.12984137
92	0xbe202d83	-0.15642361
93	0xbe2c8942	-0.16849235
94	0xbe5abe09	-0.21361555
95	0xbdae6184	-0.085146934
96	0xbe2d6e9c	-0.16936725
97	0x3e509ffd	0.2037353
98	0x3f0b69cb	0.544583
99	0xbcf33d23	-0.029692238
100	0xbe45abeb	-0.19303863
101	0x3e9e7870	0.30951262
102	0x3e90b66c	0.28264177
103	0xbe1f6509	-0.15565886
104	0x3caf2c8b	0.021383544
105	0xbdfdc909	-0.1239186
106	0xbf02fadf	-0.5116405
107	0xbebac01a	-0.36474687
108	0xbcf6fa59	-0.030148672
109	0x3e45fdd8	0.19335115
110	0x3e971231	0.29506066
111	0x3e3dbbb1	0.1852863
112	0xbd8262b0	-0.063664794
113	0xbdc24cc9	-0.09487302
114	0xbcac9794	-0.021068372
115	0x3ed304ff	0.4121475
116	0xbd7ea2f4	-0.062167123
117	0xbeb7bd97	-0.35886833
118	0xbdf66c52	-0.12032379
119	0xbe47ce6c	-0.19512337
120	0xbd494ca8	-0.04914537
121	0xbdf3626e	-0.11884008
122	0xbd4d9819	-0.05019388
123	0xbd6323e4	-0.05545415
124	0x3da14ad1	0.07875598
125	0xbe7b2db0	-0.24529147
126	0x3e51026a	0.20411077
127	0x3dcf26d7	0.1011483
128	0xbef554f9	-0.47916391
129	0x3d839a59	0.06425924
130	0x3ef96a2d	0.48713818
131	0x3ea49a1c	0.32148826
132	0xbd5dd0a9	-0.054154072
133	0xbea58d2d	-0.3233427
134	0x3e05bb5c	0.13059753
135	0x3e4630ba	0.19354525
136	0x3e04148e	0.12898466
137	0x3bb20e40	0.0054338276
138	0x3d44b3f8	0.048023194
139	0xbe04bbdb	-0.12962286
140	0x3d5267d2	0.051368542
141	0xbd94177d	-0.072310425
142	0x3d982aa2	0.074300066
143	0xbdec8a57	-0.11549824
144	0x3ca69e4a	0.02033915
145	0xbe85eef6	-0.26158875
146	0xbd6ad7d9	-0.057334755
147	0xbe1ff7b6	-0.15621838
148	0x3add2e65	0.0016874789
149	0xbcbab33f	-0.02279055
150	0x3e8d7a3a	0.27632314
151	0x3e0e992f	0.13925622
152	0x3e8bc268	0.27296758
153	0xbda82fdb	-0.08212253
154	0x3cf7d934	0.030254938
155	0xbe7a8d58	-0.24467981
156	0x3e2d49e9	0.16922726
157	0xbf265a5b	-0.6498162
158	0x3d7e7887	0.062126663
159	0xbd822071	-0.06353844
160	0xbe0df826	-0.13864192
161	0xbe21120b	-0.15729539
162	0xbdfe40fd	-0.12414739
163	0x3e7bfa72	0.24607256
164	0x3cf6aea3	0.03011257
165	0x3df83251	0.12118972
166	0xbdff34d5	-0.12461249
167	0xbe10660b	-0.14101426
168	0xbd8c91d6	-0.068637535
169	0x3df8fe20	0.121578455
170	0x3cc6abad	0.024251783
171	0x3e5d47c2	0.21609405
172	0x3e45e72d	0.19326468
173	0x3d1ef220	0.038805127
174	0xbe4aeafc	-0.19816202
175	0xbe029ae3	-0.12754397
176	0xbe85e941	-0.2615452
177	0xbd515801	-0.051109318
178	0x3df5dd30	0.12005079
179	0xbe05dc07	-0.13072215
180	0xbe30f120	-0.17279482
181	0xbe383efa	-0.17992774
182	0x3e099637	0.13436209
183	0xbd9ace98	-0.07558936
184	0x3d7c55db	0.061605316
185	0xbeafca86	-0.343342
186	0x3e2f1a78	0.17099941
187	0x3d52b2c7	0.051440027
188	0xbe3178b9	-0.17331208
189	0xbd2cf3a0	-0.042224526
190	0x3daf071e	0.08546279
191	0x3dbda98f	0.09260856
192	0xbe960103	-0.29297647
193	0x3c1022df	0.008797376
194	0x3b6700ce	0.0035248282
195	0xbe5527a8	-0.20815909
196	0x3e40aa1d	0.18814893
197	0xba669619	-0.000879617
198	0xbd3a1eed	-0.04543965
199	0x3d4d0651	0.050054852
200	0x3e842760	0.2581129
201	0x3e893460	0.2679777
202	0xbdda9bb9	-0.10674233
203	0x3e112777	0.14175211
204	0xbe62bbce	-0.22141954
205	0x3db69a3f	0.08916139
206	0xbe9c6156	-0.3054301
207	0xbde46d36	-0.11153643
208	0x3d821031	0.063507445
209	0xbb22eb05	-0.002485932
210	0xbef611d2	-0.4806047
211	0x3d8a32be	0.067479596
212	0xbed998b6	-0.42499322
213	0xbe78df08	-0.2430383
214	0x3d84281e	0.06452964
215	0x3e6f1e05	0.23351295
216	0x3e28546a	0.16438451
217	0xbad9ae23	-0.0016607683
218	0x3d38396b	0.044976633
219	0xbed14263	-0.40870962
220	0xbdb5a39d	-0.088690974
221	0xbe9aaa64	-0.30208123
222	0xbe0a6c5d	-0.135179
223	0xbe456681	-0.19277383
224	0xbe196511	-0.1497996
225	0x3ba70e55	0.005098144
226	0xbe10552e	-0.14094993
227	0xbe8e4b2c	-0.27791727
228	0x3ea79c2f	0.32736346
229	0xbd15c288	-0.036562473
230	0xbda77a93	-0.08177676
231	0xbe9d4b7e	-0.30721658
232	0xbd3e6ded	-0.046491552
233	0x3e093c7c	0.13401979
234	0xbd9dfdf8	-0.07714456
235	0x3d068ea0	0.03285086
236	0x3e930203	0.28712472
237	0x3ecaaff5	0.3958737
238	0xbe47a0dc	-0.19494957
239	0x3d43cd54	0.047803238
240	0xbe504839	-0.20340051
241	0x3e717ea5	0.23583467
242	0xbeaa2763	-0.33233175
243	0x3d3d6f7d	0.0462489
244	0x3de927c5	0.113845386
245	0xbe9f312f	-0.31092212
246	0xbeab9f06	-0.33519763
247	0x3dcb8766	0.099379346
248	0xbb68d6bf	-0.003552839
249	0x3e5846ca	0.21120754
250	0x3eb0d13e	0.3453464
251	0xbe15541e	-0.1458287
252	0x3d1cc80d	0.03827672
253	0x3d66f6fe	0.056387894
254	0xbdbd3296	-0.09238164
255	0xbddd9a12	-0.10820402

context_transformer_0/ffn_layer_1/intermediate_dense/einsum/Einsum;context_transformer_0/ffn_layer_1/intermediate_dense/Relu;context_transformer_0/ffn_layer_1/intermediate_dense/add f4 [32]
0	0xbdf2dbea	-0.118583515
1	0xbe1fc024	-0.1560064
2	0xbe380868	-0.17971957
3	0x3d7185d7	0.05896553
4	0xbe624160	-0.22095251
5	0x3e2d1d2c	0.1690566
6	0xbd908c02	-0.07057954
7	0xbdd3e78d	-0.10346899
8	0xbe8bb8c3	-0.272894
9	0xbe4489a3	-0.19193129
10	0xbeee72ad	-0.46571866
11	0xbdacce81	-0.08437825
12	0xbdbedbab	-0.09319242
13	0xbe45b3cb	-0.19306867
14	0xbe45890a	-0.19290558
15	0x3e94d4fd	0.29068747
16	0xbe6b8fce	-0.23004076
17	0x3df33588	0.11875445
18	0xbe60d91b	-0.21957819
19	0xbe23df45	-0.1600314
20	0xbe27f924	-0.16403633
21	0xbce86c3f	-0.028371928
22	0x3c4f1252	0.012638645
23	0xbe7f3047	-0.2492076
24	0x3e4c1303	0.19929127
25	0xbebe14af	-0.37125155
26	0x3e049593	0.12947683
27	0x3e2bd665	0.16781004
28	0xbdcdb313	-0.10043921
29	0xbd99a36b	-0.07501873
30	0xbde60980	-0.11232281
31	0xbe0bc8d8	-0.13650835

context_transformer_0/ffn_layer_0/norm/mul;context_transformer_0/ffn_layer_0/norm/add;context_transformer_0/ffn_layer_1/intermediate_dense/einsum/Einsum;context_transformer_0/ffn_layer_1/intermediate_dense/Relu;context_transformer_0/ffn_layer_1/intermediate_dense/add f4 [32, 32]
0	0xbedcde18	-0.43138194
1	0x3c692372	0.014229642
2	0x3e7b8ae6	0.24564704
3	0x3ea85e36	0.32884377
4	0xbd94303d	-0.07235763
5	0xbe5a6b24	-0.21329933
6	0x3e7270c4	0.23675829
7	0x3de5a395	0.112128414
8	0x3c16cb0a	0.009203682
9	0xbd1805b4	-0.037114814
10	0x3e228fd7	0.15875183
11	0xbc7cee30	-0.015437648
12	0xbd6616db	-0.05617414
13	0xbdf21dfd	-0.11822126
14	0x3c8a9888	0.016918436
15	0x3cb0a002	0.021560673
16	0x3c4839e8	0.012220837
17	0xbe412552	-0.18861893
18	0xbda8fe74	-0.08251658
19	0xbc65f708	-0.014035948
20	0x3db99dd5	0.09063307
21	0xb9eb91ea	-0.00044931407
22	0x3dbee473	0.09320917
23	0xbc9c8e28	-0.019110754
24	0x3eb4e693	0.35332164
25	0xbe183d32	-0.14867094
26	0x3d945896	0.07243459
27	0xbe26b466	-0.16279754
28	0x3ebf25eb	0.37333617
29	0xbf3ca7a8	-0.73693323
30	0x3e16e22f	0.1473472
31	0xbe4dfdd5	-0.2011636
32	0xbeacc819	-0.33746412
33	0xbde77310	-0.11301243
34	0xbe7ac05c	-0.24487442
35	0x3e33890c	0.17532748
36	0x3dd01089	0.10159404
37	0xbcd3ba51	-0.025845679
38	0xbe327586	-0.17427644
39	0xbd2b9ebb	-0.041899424
40	0xbbb35c01	-0.005473614
41	0xbe04591c	-0.12924618
42	0x3e3d70b6	0.18500027
43	0xbcf0a589	-0.029375808
44	0x3d7b122e	0.061296634
45	0xbdd6dd98	-0.104914844
46	0xbe2fe86d	-0.17178507
47	0x3eab318a	0.33436233
48	0xbdeb6d47	-0.114954524
49	0x3e2c25ce	0.16811296
50	0xbe248ca7	-0.1606928
51	0x3e382e5d	0.17986436
52	0xbe6302bf	-0.22169016
53	0xbe2b144f	-0.16706966
54	0xbe3ac7d9	-0.18240298
55	0xbea93f1e	-0.33055967
56	0x3e9049a4	0.28181183
57	0x3e76e1fc	0.24109644
58	0x3f1fcc87	0.6242146
59	0xbdf2a47c	-0.11847779
60	0x3d2d4156	0.042298637
61	0xbe148963	-0.14505534
62	0xbe8190ae	-0.25305694
63	0xbdb3ab00	-0.0877285
64	0xbe44375d	-0.19161744
65	0x3e20bee0	0.15697813
66	0x3d1febe5	0.039043326
67	0x3ea3627b	0.31911072
68	0x3e78516a	0.24249807
69	0xbcef03f1	-0.029176684
70	0xbdfaf8b8	-0.122544706
71	0xbd9e2a48	-0.07722908
72	0xbbfcb77d	-0.007712303
73	0x3ea3bba1	0.31979087
74	0x3dbe5584	0.092936546
75	0xbb882824	-0.0041551758
76	0xbdffcf8c	-0.12490758
77	0x3e042ed3	0.12908487
78	0xbc118b94	-0.008883376
79	0x3dfc3697	0.123151
80	0xbdc12890	-0.09431565
81	0xbd99082e	-0.07472263
82	0xbc3babff	-0.011454581
83	0x3c4ffcae	0.012694521
84	0x3a77325a	0.0009429805
85	0xbd1b7b48	-0.037959367
86	0xbd757c5b	-0.059933048
87	0x38fcd978	0.00012056803
88	0x3d855392	0.065100804
89	0x3e67c9d4	0.22635585
90	0x3ebcf279	0.36903742
91	0xbda4c9fd	-0.08046339
92	0x3d88124f	0.06644117
93	0xbc185b24	-0.009299073
94	0xbe99f8ce	-0.30072635
95	0x3df4eb23	0.11958911
96	0xbf2d9d4e	-0.6781815
97	0x3dd885c8	0.10572392
98	0x3e8f4252	0.27980286
99	0x3e9ebe4c	0.3100456
100	0xbcd5bab5	-0.026090005
101	0xbd7298cb	-0.059227746
102	0x3e3e4bf4	0.18583661
103	0x3ddeefa0	0.108855486
104	0x3da7c50d	0.08191881
105	0x3ea21219	0.31654432
106	0xbdf702ac	-0.120610565
107	0xbe51bc1d	-0.20481916
108	0xbdd742ad	-0.10510764
109	0xbde541b1	-0.1119417
110	0xbd4b9c3d	-0.049709547
111	0xbd035fd6	-0.03207382
112	0xbd2ad79b	-0.041709524
113	0xbe74ef8a	-0.23919502
114	0xbc8cd517	-0.017191453
115	0xbdd5100f	-0.104034536
116	0xbd3e9ea9	-0.04653803
117	0x3d82c4fb	0.06385227
118	0xbc5d6f58	-0.013515316
119	0x3dad4a91	0.08461488
120	0x3ec9b9c9	0.39399555
121	0x3d9986b1	0.074963935
122	0x3d7825d8	0.060582966
123	0xbe194e45	-0.14971264
124	0x3e3d5a0f	0.18491386
125	0xbf3d1720	-0.7386341
126	0xbdba17d0	-0.09086573
127	0xbe5fca99	-0.21854629
128	0xbcd15675	-0.025553921
129	0x3d488d25	0.04896273
130	0x3e139156	0.1441091
131	0xbec8b123	-0.39197645
132	0xbe043192	-0.12909535
133	0x3cf3e099	0.029770182
134	0x3e19b98a	0.15012184
135	0xbe34fdd2	-0.1767495
136	0xbdc4771d	-0.095930316
137	0x3e1a7e0d	0.15087147
138	0xbc525a78	-0.012838952
139	0xbe87f4c3	-0.26553926
140	0xbdd226dc	-0.10261318
141	0xbd8155c9	-0.0631519
142	0xbdaf8885	-0.08570961
143	0xbe3f0279	-0.18653287
144	0x3dae0440	0.084969044
145	0x3e6a99cd	0.22910233
146	0x3e267cba	0.16258517
147	0x3cb31ab4	0.021863319
148	0xbe6d2021	-0.23156787
149	0xbe01da0e	-0.12680838
150	0x3e20af56	0.15691885
151	0xbc7d2d03	-0.015452626
152	0xbdd60411	-0.10449994
153	0x3e586073	0.21130542
154	0x3e2b93af	0.16755556
155	0xbd15670a	-0.03647522
156	0xbaf1c7a1	-0.0018446335
157	0xbc831db4	-0.016005374
158	0xbdc02509	-0.09382064
159	0xbe0e6c56	-0.13908514
160	0xbee3b299	-0.44472197
161	0xbdd6f974	-0.10496798
162	0xbca8fc18	-0.02062802
163	0x3e07245c	0.13197464
164	0x3e38bf6c	0.18041772
165	0x3c688c05	0.0141935395
166	0xbdccc000	-0.099975586
167	0x3e865553	0.26236972
168	0x3e0d45df	0.13796185
169	0xbd815efe	-0.063169464
170	0xbdee8968	-0.11647302
171	0x3cb409f6	0.021977406
172	0x3ed6deac	0.4196676
173	0xbe1308f9	-0.14358892
174	0x3e22ba5f	0.15891407
175	0x3d20be80	0.039244175
176	0x3ce2c157	0.027680082
177	0xbd8c799d	-0.068591334
178	0xbe1826ec	-0.14858598
179	0xbc69efe8	-0.0142783895
180	0xbe9fa0a0	-0.31177235
181	0x3cbbcafe	0.022923943
182	0x3cf791f2	0.03022096
183	0x3e0b0b27	0.13578473
184	0x3ee28862	0.44244677
185	0x3e19b47e	0.15010259
186	0xbd7f2d8c	-0.062299296
187	0xbe440c6f	-0.19145368
188	0x3dd02b10	0.101644635
189	0xbecba77a	-0.39776212
190	0xbd84efff	-0.06491088
191	0xbda9eb02	-0.08296777
192	0xbe112dbe	-0.14177606
193	0xbdcc4013	-0.09973159
194	0xbcab3f43	-0.020904189
195	0xbec51e24	-0.38499558
196	0x3d21142b	0.039325874
197	0x3e4e868b	0.20168512
198	0x3d8706c6	0.06593089
199	0xbe5c5239	-0.2151574
200	0xbd19f2dd	-0.037585128
201	0x3db9aae1	0.09065796
202	0xbd07be55	-0.0331405
203	0x3e239027	0.15972959
204	0x3ea2f8cc	0.31830442
205	0x3ea5a93d	0.3235568
206	0xbe04f50a	-0.129841
207	0x3e0b9960	0.13632727
208	0xbdcd50fb	-0.100252114
209	0x3e8a13e4	0.269683
210	0x3c3e66a9	0.011621156
211	0xbdba451a	-0.09095211
212	0xbd6450b3	-0.055741023
213	0xbed25dd2	-0.41087204
214	0xbdcb970a	-0.09940918
215	0xbe42a167	-0.19006883
216	0xbdb344e2	-0.08753373
217	0xbca5cb49	-0.020238535
218	0x3d81205c	0.06305
219	0xbdd2ee88	-0.102994025
220	0x39d315cb	0.00040261293
221	0xbc135249	-0.008991786
222	0xbd0cb94a	-0.034356393
223	0x3d91e550	0.07123816
224	0xbf0af6ad	-0.5428265
225	0x3d3e61e9	0.046480093
226	0x3e8507b7	0.25982448
227	0x3eb34b3f	0.35018346
228	0xbddd2492	-0.10797991
229	0xbe43f353	-0.1913579
230	0x3e80ffe7	0.25195238
231	0x3e2a33ff	0.16621397
232	0xbad1c240	-0.0016003326
233	0x3de62b0f	0.112386815
234	0x3dcfde66	0.10149841
235	0xbd00f8b7	-0.031487193
236	0xbd18dbe4	-0.03731908
237	0xbe13993d	-0.14413925
238	0x3d32a93a	0.04361842
239	0xbd3b6eae	-0.04575985
240	0x3da7a432	0.08185615
241	0xbe5d3e6a	-0.2160584
242	0x3d68a11e	0.05679428
243	0xbd8ad0bd	-0.06778095
244	0xbb20726f	-0.002448227
245	0xbc83d8d7	-0.016094608
246	0x3e74f8d1	0.23923041
247	0x3db7d6b9	0.08976502
248	0x3ed8e132	0.4235931
249	0xbe614592	-0.21999195
250	0xbc47f095	-0.012203355
251	0xbe2242bb	-0.15845768
252	0x3ecd35fa	0.40080243
253	0xbf318570	-0.69344234
254	0x3e0d5eb0	0.13805652
255	0xbd7f2648	-0.062292367

context_transformer_0/ffn_layer_2/intermediate_dense/einsum/Einsum;context_transformer_0/ffn_layer_2/intermediate_dense/Relu;context_transformer_0/ffn_layer_2/intermediate_dense/add f4 [32]
0	0x3cc6d4bd	0.024271363
1	0x3e0536da	0.13009205
2	0xbe3f2bf7	-0.18669115
3	0xbe8f6e47	-0.28013822
4	0xbe3f472d	-0.18679495
5	0x3d4d4164	0.05011119
6	0xbe80816d	-0.25098744
7	0xbe8a0a93	-0.26961192
8	0xbe0a2502	-0.1349068
9	0x3edb697a	0.4285391
10	0xbcacf85d	-0.021114523
11	0xbe6e78bd	-0.23288245
12	0xbda018d0	-0.078172326
13	0xbe04a09e	-0.12951896
14	0x3c18f505	0.009335761
15	0xbe44cc94	-0.19218665
16	0xbda96eb6	-0.082730696
17	0xbda3166a	-0.079632595
18	0xbda192f8	-0.0788936
19	0xbcf34877	-0.02969764
20	0x3e172c99	0.14763106
21	0xbd794ed8	-0.060866207
22	0x3cc2a2bd	0.02375924
23	0xbe23923b	-0.15973751
24	0x3d11938a	0.035541095
25	0xbe6e27ad	-0.23257323
26	0xbe490391	-0.19630267
27	0xbe13e758	-0.1444372
28	0xbe51f459	-0.20503367
29	0x3d089ec2	0.03335453
30	0xbe2a0615	-0.16603883
31	0xbe96da70	-0.2946353

context_transformer_0/ffn_layer_1/norm/mul;context_transformer_0/ffn_layer_1/norm/add;context_transformer_0/ffn_layer_2/intermediate_dense/einsum/Einsum;context_transformer_0/ffn_layer_2/intermediate_dense/Relu;context_transformer_0/ffn_layer_2/intermediate_dense/add f4 [32, 32]
0	0xbd51cf60	-0.05122316
1	0x3e622aba	0.22086611
2	0x3e70a7fd	0.23501582
3	0xbe8732df	-0.26406
4	0xbe842442	-0.25808913
5	0xbe84060f	-0.25785872
6	0x3e23e919	0.16006888
7	0xbeb47199	-0.35242918
8	0xbd3bd2e6	-0.045855425
9	0x3e5cabba	0.21549883
10	0xbe0010ce	-0.1250641
11	0xbeb37172	-0.3504749
12	0x3e35a264	0.17737728
13	0xbdd105f9	-0.10206217
14	0x3e0fe5e4	0.1405254
15	0xbdf22e97	-0.118252926
16	0x3e9aac50	0.3020959
17	0xbe59a7f5	-0.21255477
18	0xbe000ff7	-0.1250609
19	0x3c897e30	0.016783804
20	0x3e2b9a9d	0.16758199
21	0x3d4af99d	0.049554456
22	0xbbb46115	-0.005504737
23	0xbe159021	-0.14605762
24	0x3de74c4a	0.11293848
25	0xbe36ecfe	-0.17863843
26	0x3e45667a	0.19277373
27	0xbe21f635	-0.15816577
28	0xbe097736	-0.13424382
29	0xbd30305a	-0.04301486
30	0x3d067d66	0.032834433
31	0xbe88201b	-0.26586995
32	0xbcae954c	-0.021311425
33	0x3e44e21a	0.19226876
34	0x3e50d375	0.20393164
35	0x3ee0bc89	0.4389384
36	0x3dafbe5b	0.08581229
37	0xbdc92999	-0.09822387
38	0xbd3d4e28	-0.046217114
39	0x3bb513e4	0.005526053
40	0x3d57f881	0.052727226
41	0x3ec98914	0.39362395
42	0xbe800559	-0.2500408
43	0xbe333ab6	-0.17502865
44	0xbeab4849	-0.33453587
45	0xbdeac782	-0.11463834
46	0x3d044380	0.032290936
47	0xbda5f389	-0.08103091
48	0x3d9fd161	0.07803608
49	0xbe22c54d	-0.15895577
50	0x3e223948	0.15842164
51	0xbd2a1c66	-0.04153099
52	0xbe061c62	-0.13096765
53	0x3e9d360e	0.30705303
54	0x3e2efa96	0.17087778
55	0xbe62edf5	-0.22161086
56	0xbd7b161d	-0.061300386
57	0x3d372f61	0.04472292
58	0x3e12d8fc	0.14340585
59	0xba4fde0c	-0.0007929511
60	0xbdaf52eb	-0.08560737
61	0x3d481253	0.0488456
62	0xbe4548ec	-0.19266099
63	0xbe55e4ac	-0.20888013
64	0xbebd2748	-0.36944032
65	0xbdc51684	-0.09623435
66	0xbd45054c	-0.048100755
67	0x3e187552	0.14888504
68	0xbe6e5a9e	-0.23276755
69	0xbe7693a1	-0.24079753
70	0xbd870a29	-0.06593735
71	0x3e73bfab	0.23803584
72	0xbec1cf29	-0.37853363
73	0x3e59445b	0.21217482
74	0xbe4a23f8	-0.19740283
75	0xbd066741	-0.032813314
76	0xbd643971	-0.055718843
77	0xbe0c1f1e	-0.13683745
78	0xbe49ae0a	-0.19695297
79	0x3e15c4d2	0.14625862
80	0x3de7d8bf	0.11320638
81	0x3df525d4	0.11970106
82	0xbd828119	-0.0637228
83	0xbd42a633	-0.04752178
84	0x3d833fc3	0.06408646
85	0x3e04bde3	0.12963061
86	0xbe637c40	-0.22215366
87	0x3e6dfdc4	0.23241335
88	0xbd6e4f89	-0.05818132
89	0xbd6d3ff2	-0.05792231
90	0x3eaae582	0.33378226
91	0xbde81143	-0.113314174
92	0xbd9a8bc9	-0.07546193
93	0x3e4c7bc2	0.19969085
94	0x3d83d667	0.064373784
95	0x3ca9387e	0.02065682
96	0xbe307fa8	-0.17236197
97	0xbe79586d	-0.24350138
98	0x3d649423	0.055805337
99	0x3d351456	0.044208847
100	0x3e5d19e8	0.21591914
101	0x3dc2c310	0.095098615
102	0x3dd5800e	0.10424815
103	0x3d563fc0	0.05230689
104	0xbe27efe2	-0.16400102
105	0xbd68ea46	-0.056864046
106	0x3d8f0ed5	0.06985251
107	0xbddc5478	-0.10758299
108	0xbce006c1	-0.02734697
109	0xbd7dfc9b	-0.06200848
110	0x3d9b36bc	0.07578799
111	0x3e545e92	0.207392
112	0x3db54c6f	0.08852469
113	0x3dcc8a2e	0.09987293
114	0x3ea80ca3	0.3282214
115	0xbc9beead	-0.019034708
116	0xbe2d0ae5	-0.16898687
117	0xbd926381	-0.07147885
118	0x3cebebc6	0.028798949
119	0xbcd37ce8	-0.025816396
120	0x3cfb243d	0.030656928
121	0xbe25a009	-0.1617433
122	0x3ae7b2a1	0.0017677137
123	0xbd9bf6ff	-0.0761547
124	0x3e81987c	0.2531165
125	0x3d9e1e38	0.077206075
126	0x3e75476a	0.23953024
127	0x3d9d2711	0.07673467
128	0xbdd5fd89	-0.104487486
129	0xbdba0ad4	-0.090840966
130	0x3d9b9657	0.075970344
131	0x3e2897eb	0.16464202
132	0x3db4565e	0.08805536
133	0x3e85d006	0.26135272
134	0x3dad189d	0.0845196
135	0xbe093985	-0.13400848
136	0x3d06d81d	0.032920945
137	0xbc93db75	-0.018048981
138	0xbc8ca5b0	-0.01716885
139	0x3e29fd5d	0.16600557
140	0x3de4f311	0.11179174
141	0x3e98c6b9	0.29839113
142	0xbd06359a	-0.032765962
143	0xbe4185c0	-0.18898678
144	0x3e9de62d	0.30839673
145	0x3d79004f	0.06079131
146	0x3e48d51f	0.19612549
147	0xbeb2f75c	-0.34954345
148	0xbdab6dce	-0.08370553
149	0x3e51de8f	0.20495056
150	0x3d3730dd	0.044724334
151	0x3eb52a3f	0.35383794
152	0xbd5d2ea4	-0.053999558
153	0xbe7bc851	-0.24588133
154	0x3e46296d	0.1935174
155	0xbdb43c33	-0.088005446
156	0x3daa445f	0.08313822
157	0x3e031b9a	0.12803498
158	0xbde1152e	-0.10990368
159	0xbd4006b6	-0.0468814
160	0xbefc28a9	-0.4924977
161	0xbe3e7b8d	-0.18601818
162	0xbe9b19cb	-0.30293116
163	0xbd924e8a	-0.071438864
164	0x3dc02031	0.0938114
165	0xbe393a18	-0.18088567
166	0xbe80fdab	-0.25193533
167	0x3d51b4e2	0.051197894
168	0xbdf65640	-0.1202817
169	0x3d9b9b7a	0.07598014
170	0xbe1b9393	-0.15193014
171	0xbd9150fe	-0.07095526
172	0x3e19944b	0.14997976
173	0x3db0253a	0.086008504
174	0xbe547bf2	-0.20750406
175	0xbdb70a5e	-0.08937524
176	0x3d9dffaf	0.077147834
177	0x3e16ae97	0.14715038
178	0xbe1533f7	-0.14570604
179	0x3e0c270f	0.13686775
180	0xbd348e58	-0.044081062
181	0x3deb1d98	0.11480254
182	0x3a8ffa6b	0.0010984665
183	0x3e462581	0.19350244
184	0x3e13c296	0.14429697
185	0x3db09258	0.08621663
186	0x3ea38fd2	0.31945664
187	0xbd6fb00f	-0.058517512
188	0xbe387ca3	-0.18016295
189	0xbe11aa02	-0.14225009
190	0xbe059934	-0.13046724
191	0x3d5615b0	0.052266777
192	0xbe14e804	-0.14541632
193	0x3dafda54	0.08586565
194	0x3c86741f	0.016412793
195	0x3e8043fd	0.2505187
196	0x3e2f2d22	0.1710706
197	0xbdba8055	-0.09106509
198	0xbded4df7	-0.11587136
199	0xbc9cbdd0	-0.019133478
200	0xbe401b6a	-0.18760458
201	0xbdce4b4c	-0.100729555
202	0xbe1bab58	-0.15202081
203	0x3dad17e9	0.08451826
204	0xbdd8d274	-0.10587016
205	0x3e5ca5c3	0.21547608
206	0x3d11e80b	0.035621684
207	0xbe0dd10e	-0.1384928
208	0xbe0e364c	-0.138879
209	0x3d8ee11c	0.0697653
210	0xbe4b6c55	-0.19865544
211	0x3e704a5e	0.23465869
212	0x3ba95041	0.0051670377
213	0xbe87da83	-0.265339
214	0x3d1f5321	0.038897637
215	0x3e7472fa	0.23871985
216	0xbeab4465	-0.33450618
217	0xbd8b23f6	-0.067939684
218	0x3e36e308	0.17860043
219	0xbea4ba27	-0.32173273
220	0x3c2b617b	0.010460253
221	0x3dbb0542	0.09131862
222	0xbd224caa	-0.039623894
223	0xbe31f06c	-0.1737687
224	0xbc926cd1	-0.017874153
225	0xbe1db1fc	-0.15399927
226	0xbd1a9cf5	-0.037747342
227	0x3e803eb9	0.25047854
228	0xbe6c95fc	-0.2310409
229	0x3da01666	0.07816772
230	0xbe21c48f	-0.15797637
231	0x3d1c87dc	0.038215503
232	0xbc8477fa	-0.01617049
233	0x3caec299	0.021333026
234	0x3d9716ba	0.073773816
235	0x3e2fbe7f	0.17162512
236	0x3e9edad5	0.3102633
237	0xbe2c68c5	-0.16836841
238	0x3d5a8421	0.053348664
239	0xbc836585	-0.01603962
240	0x3dbc909f	0.09207272
241	0x3e083276	0.133005
242	0x3d43995f	0.047753688
243	0x3dda9181	0.10672284
244	0xbdb7f984	-0.08983138
245	0xbc9fa3f9	-0.019487368
246	0x3c7a57fa	0.015279764
247	0x3d868246	0.065678164
248	0xbe14daea	-0.14536634
249	0xbe49bde3	-0.19701342
250	0xbe9c3f5c	-0.3051709
251	0xbc8581c3	-0.016297227
252	0x3dcaa34d	0.098944284
253	0xbda61130	-0.08108747
254	0x3e913bbb	0.28365883
255	0x3d4fbb00	0.050715446

context_transformer_0/ffn_layer_3/intermediate_dense/einsum/Einsum;context_transformer_0/ffn_layer_3/intermediate_dense/Relu;context_transformer_0/ffn_layer_3/intermediate_dense/add f4 [32]
0	0xbe1575e7	-0.14595757
1	0xbe05fba2	-0.13084272
2	0xbe1836fa	-0.14864722
3	0xbd3bff6c	-0.045897886
4	0xbe4a6194	-0.19763786
5	0xbe5cf9f3	-0.21579723
6	0xbd9a25fd	-0.07526777
7	0xbdcd5d69	-0.10027582
8	0xbde6e5df	-0.11274313
9	0xbe494c38	-0.19657981
10	0xbe5ee546	-0.21767148
11	0xbe794cef	-0.24345754
12	0xbd62dd33	-0.055386733
13	0xbe9b7d50	-0.30369043
14	0xbc1612b0	-0.009159729
15	0xbdedb399	-0.11606521
16	0xbe692f68	-0.2277199
17	0xbe510f08	-0.2041589
18	0xbd362508	-0.04446891
19	0xbdda1b0a	-0.106496885
20	0xbdb2f444	-0.08737996
21	0xbdd1f9fd	-0.102527596
22	0xbddc7db2	-0.10766162
23	0xbd22b225	-0.039720673
24	0xbdc87c52	-0.09789337
25	0xbe1052c4	-0.14094073
26	0xbdba6730	-0.09101713
27	0xbdc3f880	-0.09568882
28	0xbe84b2ef	-0.25917765
29	0xbe44ab25	-0.19205911
30	0xbda04ae5	-0.07826785
31	0xbdc7f701	-0.09763909
